crit.pt (torch, 556479 bytes, 13 tensors)

weight f4 [64, 3, 4, 4]
0	0xbae1990c	-0.0017211749
1	0x3de873a9	0.113501854
2	0xbd507c4c	-0.05089979
3	0xbd8a7b9b	-0.06761857
4	0xbd4b5814	-0.049644545
5	0xbc92fced	-0.01794287
6	0xbda7417c	-0.08166787
7	0xbcaf72b8	-0.021417007
8	0x3d704a32	0.05866451
9	0x3c57d7fa	0.013174051
10	0x3d0f459e	0.0349785
11	0x3d832861	0.06404186
12	0x3cec06ba	0.028811801
13	0x3d2c7916	0.042107664
14	0x3d11ddda	0.035611965
15	0xbccfb8c1	-0.025356652
16	0x3d778c21	0.06043637
17	0xbdbb7f21	-0.09155107
18	0xbcc7a54a	-0.024370808
19	0x3ddfd6fa	0.109296754
20	0x3cf94ed3	0.030433094
21	0x3d847a2b	0.06468614
22	0x3b744d6c	0.0037277592
23	0x3bdeabed	0.0067953975
24	0xbda5d60d	-0.080974676
25	0xbcbbae34	-0.022910215
26	0xbd05e714	-0.032691076
27	0xbce7d7ff	-0.028301237
28	0x3d2445b0	0.04010552
29	0xbd4ee827	-0.050514366
30	0xbc9c2f65	-0.019065568
31	0x3c978eb6	0.018500667
32	0xbdadded5	-0.084897675
33	0xbd3188bb	-0.043343287
34	0x3d85d996	0.06535642
35	0xbd374c01	-0.044750217
36	0x3d8fae82	0.070157066
37	0x3bf15e06	0.007365945
38	0x3d2b457a	0.041814305
39	0x3b1085f1	0.0022052492
40	0xbd25a7e2	-0.04044331
41	0xbd31af5d	-0.04338013
42	0x3d36826f	0.044557985
43	0xbcd0e36a	-0.025499064
44	0xbc84e676	-0.016223174
45	0xba67d616	-0.0008843852
46	0xbb7ad9c0	-0.0038276762
47	0x3c836125	0.016037533
48	0xbd89c584	-0.06727126
49	0xbd302fd3	-0.04301436
50	0xbcdb97f1	-0.02680585
51	0xbad56335	-0.0016280176
52	0xbcdc14cb	-0.026865384
53	0xbca8109b	-0.02051573
54	0x3d848f10	0.064725995
55	0xb99b7683	-0.00029652202
56	0xbcfe9fe3	-0.0310821
57	0xbd2ddeaa	-0.042448677
58	0xbc341948	-0.010992356
59	0x3d167a9c	0.036738023
60	0xbcd469b5	-0.025929311
61	0xbc7deb9d	-0.015498069
62	0xbcb34b53	-0.021886503
63	0x3cf17815	0.029476205
64	0x3d1ed88d	0.038780738
65	0x3d63350f	0.055470522
66	0x3c027767	0.007963038
67	0x3d8b2f71	0.06796158
68	0x3ce51dbc	0.02796828
69	0x3d94b68b	0.0726138
70	0x3dab3673	0.08359995
71	0x3e085beb	0.13316314
72	0xbc5d25bc	-0.013497766
73	0x3cd0624d	0.025437498
74	0x3d025e70	0.031828344
75	0x3db6fb23	0.08934619
76	0x3bbba63e	0.0057266047
77	0x3cb96eae	0.022635784
78	0x3ce30603	0.027712828
79	0x3bf623f2	0.0075116092
80	0xbc7b6899	-0.015344762
81	0x3c9f19a3	0.019421404
82	0xbd1870a3	-0.037216794
83	0x3d129642	0.03578783
84	0x3c04e31f	0.0081107905
85	0x3a918f19	0.0011105268
86	0x3d968eea	0.073514774
87	0x3cced2e3	0.025247043
88	0xbd86ff62	-0.06591679
89	0xbb5980d3	-0.0033188357
90	0x3c9e68ac	0.01933702
91	0x3cb88d93	0.022528445
92	0xbaaf9179	-0.0013394795
93	0xbd3734f6	-0.04472824
94	0x3a441f73	0.0007481493
95	0x3cd16b8f	0.025563983
96	0xbd44d6cc	-0.04805641
97	0x3def1eae	0.116757736
98	0x3b0db2db	0.0021621499
99	0xbcd74e9c	-0.026282601
100	0xbb58cbd4	-0.0033080475
101	0x3d4dc574	0.050237134
102	0x3d7fbaeb	0.06243412
103	0xbd751b7e	-0.05984067
104	0xbcba5a8a	-0.02274825
105	0xbd102297	-0.035189237
106	0x3c788795	0.015169044
107	0x3d58b610	0.052908003
108	0x3cfa2547	0.030535353
109	0x3c7491d0	0.0149273425
110	0xbc80314e	-0.01564851
111	0x3b3ced2c	0.002882789
112	0xbab6866b	-0.0013925558
113	0xbda47374	-0.080298334
114	0xbd52fbe5	-0.051509757
115	0xbd206107	-0.039155032
116	0xbb8f052f	-0.0043646316
117	0xbd0381d8	-0.03210625
118	0xbd2c3808	-0.042045623
119	0xbd5cd970	-0.053918302
120	0xbdbace9b	-0.09121438
121	0xbd4c705a	-0.049911834
122	0x3c613447	0.013745374
123	0x3bb06005	0.00538254
124	0xbd9cfd15	-0.07665459
125	0x3c91cf64	0.017799087
126	0xbdae3f51	-0.085081704
127	0xbd932613	-0.071849965
128	0xbb47c1cc	-0.0030480502
129	0x3c1f6ed7	0.009731016
130	0x3bfa3740	0.007635981
131	0xbc8e1e61	-0.01734847
132	0xbd0d903e	-0.03456139
133	0x3bb4ffdd	0.0055236653
134	0xbc899c08	-0.016798034
135	0x3b4a9626	0.003091225
136	0xbd07bd50	-0.033139527
137	0xb981f8bf	-0.00024790128
138	0xbd6fcaf3	-0.058543157
139	0xbca9488f	-0.020664481
140	0xbd60d77d	-0.054893006
141	0x3c846fcc	0.01616659
142	0xbce6537d	-0.028115982
143	0xbd9ad03e	-0.0755925
144	0x3de479e4	0.11156061
145	0x3dcdad24	0.100427896
146	0xbc958bf4	-0.018255211
147	0xbc9e37c8	-0.019313708
148	0xbbd974a8	-0.006636221
149	0x3dcad710	0.09904301
150	0xbcae0bc8	-0.021245852
151	0x3b858237	0.0040743607
152	0x3d0b61d0	0.03402883
153	0x3d40bdaf	0.047055896
154	0xbd3181ef	-0.043336805
155	0x3c9aa49a	0.018877316
156	0x3e02df63	0.12780528
157	0x3cf31cd9	0.029676842
158	0xbc3a9e14	-0.011390228
159	0xbcd575b9	-0.026057111
160	0xbce03d42	-0.02737296
161	0x3d118940	0.035531282
162	0xbc933008	-0.017967239
163	0xbcc26c04	-0.023733146
164	0x3c8a0f9c	0.016853146
165	0x3d0f19af	0.034936603
166	0xbd535268	-0.05159226
167	0xbca10b74	-0.019658782
168	0x3c546044	0.012962405
169	0x3c91e49d	0.017809207
170	0x3c574ec7	0.013141341
171	0xba4a63f8	-0.0007720585
172	0x3d5c1f72	0.053740926
173	0x3d31357b	0.043263894
174	0x3da9b095	0.082856335
175	0x3d1c2654	0.03812249
176	0xbd2d9ea4	-0.04238762
177	0xbd8057c9	-0.06266744
178	0x3c2333d5	0.009961088
179	0x3ce529e6	0.02797408
180	0xbcce3904	-0.025173672
181	0xbd08fe3b	-0.033445578
182	0x3db9a2bc	0.09064242
183	0xbbf2366c	-0.0073917415
184	0x3c8932a9	0.01674779
185	0x3c6d1f56	0.014472803
186	0x3bf761e9	0.0075495136
187	0x3ae3ad2a	0.0017370332
188	0xbd2dc199	-0.042420957
189	0x3c4b3c06	0.012404447
190	0x3d8b206e	0.06793295
191	0x3d691bc1	0.056911234
192	0x3c5cf533	0.013486194
193	0xbcf3893c	-0.029728524
194	0xbce44819	-0.02786641
195	0xbadd78f9	-0.0016897015
196	0xbc3be4f1	-0.011468158
197	0x3c9081a0	0.017639935
198	0x3d2d0dfd	0.04224967
199	0x3d5b6405	0.053562183
200	0xbcbc5d2f	-0.022993652
201	0x3cfcab76	0.030843478
202	0x3c60e772	0.013727056
203	0x3c562b17	0.013071797
204	0xbc7d0995	-0.015444179
205	0xbe05e367	-0.13075028
206	0x3d593616	0.053030096
207	0xbc91c548	-0.017794266
208	0xbd60ad72	-0.05485291
209	0x3af9459f	0.0019017941
210	0xbc9f4d78	-0.01944612
211	0x3d06f5ba	0.032949187
212	0x3c3571ed	0.011074525
213	0x3bf5ed75	0.0075051137
214	0xbc4cf29a	-0.012509013
215	0x3d8e571f	0.06950211
216	0xbd279506	-0.040913604
217	0x3d3ebaa3	0.04656471
218	0x3ce28d08	0.02765514
219	0x3be57379	0.007002291
220	0x3ced4462	0.028963272
221	0xbd0b6f89	-0.034041915
222	0x3c1dca5f	0.009630769
223	0x3ce3a3cf	0.027788071
224	0x3c1ac85f	0.009447186
225	0xbb50b933	-0.0031848669
226	0x3cf49ec8	0.029860869
227	0x3d506ad8	0.050883144
228	0x3d397afc	0.045283303
229	0x3d93c47f	0.07215213
230	0x3d0bbe9d	0.03411733
231	0x3dbb3079	0.09140105
232	0xbc9e5f3a	-0.019332517
233	0x3da1c03f	0.07897996
234	0x3d829128	0.063753426
235	0x3d8cbc07	0.06871801
236	0x3d30904d	0.043106366
237	0x3d93ed3f	0.072229855
238	0x3d01e816	0.031715475
239	0x3d0a1b8a	0.03371767
240	0xbdd92534	-0.10602799
241	0x3d19cb7b	0.03754757
242	0x3dd62eac	0.10458121
243	0xbd2a492e	-0.041573696
244	0xbcff26de	-0.031146463
245	0xbd85c12c	-0.06530985
246	0xbb227a17	-0.002479201
247	0xbdcc1030	-0.09964025
248	0x3d691d92	0.056912966
249	0xbd0d446a	-0.034489073
250	0x3bd93c1a	0.006629479
251	0x3dc8b21d	0.097995974
252	0xbd84c6aa	-0.06483205
253	0x3aae1a64	0.0013283012
254	0x3d727319	0.059191797
255	0x3cad053a	0.021120656

bias f4 [64]
0	0xbbad943f	-0.0052972133
1	0xbd890e46	-0.066921756
2	0x3d22320e	0.039598517
3	0x3d7989ee	0.060922556
4	0x3c76f51e	0.015073089
5	0xbba7648f	-0.005108423
6	0xbdfdb5f1	-0.12388218
7	0x3fa3a0e9	1.2783481
8	0x3f9db25d	1.2320057
9	0x3e056e32	0.13030317
10	0xbe195313	-0.14973097
11	0x3ca3b0f4	0.019981839
12	0xc03a7b4d	-2.9137757
13	0xbd4d77c1	-0.050163034
14	0xc02a1c35	-2.6579716
15	0xbe144132	-0.14477995
16	0x400ac8e8	2.1685123
17	0x3f8ca1d5	1.0986887
18	0xbb121a3e	-0.0022293474
19	0x3e9819cd	0.29707184
20	0xbbc69748	-0.0060605146
21	0xbd97a160	-0.07403827
22	0xbc89de1a	-0.01682954
23	0xbc506241	-0.012718738
24	0xbcc3111c	-0.02381187
25	0xbd27e92c	-0.040993854
26	0x3c2d14f9	0.010564082
27	0x3d628cb8	0.05530998
28	0x3b792047	0.0038013624
29	0xbd02d2d8	-0.031939358
30	0xbdc93214	-0.09824005
31	0x3e709296	0.23493418
32	0xbf2b0ae5	-0.668135
33	0xbcd96370	-0.026536673
34	0x3cdf7f1b	0.027282288
35	0xbf956e95	-1.1674372
36	0x3d435762	0.047690757
37	0x401a3382	2.4093938
38	0xbd66c818	-0.056343168
39	0xbba1e2e5	-0.004940378
40	0xbf0ac44f	-0.54205793
41	0x401c2c6e	2.4402118
42	0x3da8df8e	0.08245765
43	0xbca8f5f0	-0.020625085
44	0x3d71a479	0.058994744
45	0x3e5ca876	0.21548638
46	0xbfe760c4	-1.8076406
47	0xbefd5100	-0.4947586
48	0xbd25eca8	-0.040508896
49	0x3da9ec20	0.082969904
50	0xbc6f0590	-0.014588729
51	0xbbc70fbf	-0.006074875
52	0xbc98c78a	-0.018649835
53	0x3dab201a	0.08355732
54	0x3c7a0462	0.015259834
55	0x3e21f2e7	0.15815316
56	0xbd808176	-0.06274693
57	0xbf6b8749	-0.92003304
58	0xbf577476	-0.8416208
59	0x3f0f71a0	0.56032753
60	0x3d05bf96	0.032653414
61	0x3b9f10fa	0.0048543187
62	0xbd204ed1	-0.039137665
63	0x3cd5bd48	0.026091233

weight f4 [64]
0	0x3d1daf9f	0.038497563
1	0x3daa7826	0.08323698
2	0x3d8a133b	0.06741949
3	0xbd51826b	-0.051149767
4	0xbd578423	-0.05261625
5	0xbd443bd6	-0.047908626
6	0xbd061318	-0.032733053
7	0x3d4b948c	0.049702212
8	0xbd44a114	-0.04800518
9	0xbd79ee2b	-0.06101815
10	0x3d276f81	0.040877823
11	0xbcd96267	-0.02653618
12	0x3db050ef	0.08609187
13	0xbda9efa8	-0.08297664
14	0xbdc5c5e6	-0.09656887
15	0x3db77579	0.08957953
16	0xbdd6e4ae	-0.10492836
17	0xbd8ac276	-0.06775372
18	0xbc4ed5a9	-0.012624183
19	0xbd103bb3	-0.035213184
20	0xbde950b8	-0.11392349
21	0x3d99b218	0.07504672
22	0xbd5bcc73	-0.053661775
23	0xbd2c01dc	-0.04199396
24	0xbc658928	-0.014009751
25	0x3d6ec83e	0.058296435
26	0x3d666e1a	0.056257345
27	0xbd9cb366	-0.07651405
28	0xbd48ffdd	-0.049072135
29	0x3cf7320e	0.030175235
30	0xbd8b673b	-0.06806799
31	0xbd4d43df	-0.050113555
32	0xbd575e6a	-0.052580275
33	0xbd890016	-0.066894695
34	0xbd0e95b4	-0.034810737
35	0x3dbe1058	0.09280461
36	0xbd286b2a	-0.041117825
37	0x3e006886	0.12539873
38	0x3d8e8917	0.069597416
39	0x3c807150	0.015679032
40	0xbd745775	-0.059653718
41	0xbd39dc96	-0.045376383
42	0x3df2399e	0.11827396
43	0x3c896cd2	0.016775522
44	0x3d57fb57	0.05272993
45	0x3d3a3af4	0.04546638
46	0x3e00bd5e	0.12572238
47	0xbd9a8301	-0.07544518
48	0xbd3da1f7	-0.04629704
49	0x3d408be6	0.047008418
50	0x3d616741	0.05503011
51	0xbd12c7bc	-0.035835013
52	0x3cf5410b	0.029938241
53	0x3d864517	0.065561466
54	0xbd4c7095	-0.049912054
55	0xbd53bb8b	-0.051692527
56	0x3d4eaa23	0.050455224
57	0xbd40cb9c	-0.047069177
58	0xbd062566	-0.03275051
59	0x3d8fa032	0.07012977
60	0xbd9c5bea	-0.07634719
61	0x3d85ef3e	0.065397725
62	0x3cf06789	0.029346244
63	0x3d90ccc8	0.07070309

bias f4 [64]
0	0xbf38106e	-0.7190007
1	0x3df32a8b	0.11873349
2	0x3d956daf	0.07296311
3	0x3dc6ae1d	0.09701178
4	0x3e09d14c	0.13458747
5	0xbf358c0f	-0.7091684
6	0x3d70be48	0.058775216
7	0x3e3ea6d0	0.18618321
8	0x3cdd6d32	0.027029607
9	0x3dbfde94	0.09368625
10	0x3d4e9812	0.050437994
11	0x3d68d0b5	0.056839664
12	0x3e32acc0	0.17448711
13	0x3e4af5d3	0.19820337
14	0x3e38c1b0	0.18042636
15	0x3dd49f05	0.10381893
16	0x3d7647b7	0.060126986
17	0x3dc8439a	0.09778519
18	0x3e7c257d	0.24623676
19	0x3e0aa06d	0.1353776
20	0x3d5d1a4a	0.05398015
21	0x3d923477	0.07138913
22	0x3cb8b06f	0.022545068
23	0x3d87a1b0	0.06622636
24	0x3cc4caea	0.024022538
25	0x3dda06f0	0.106458545
26	0x3e2a51b3	0.16632728
27	0x3d44be3e	0.04803299
28	0x3e34634e	0.17616007
29	0x3d30b041	0.04313684
30	0x3e14cddc	0.14531654
31	0x3d00dd46	0.031461023
32	0x3d53c9bc	0.05170606
33	0x3dafaed0	0.08578265
34	0x3e0b18d9	0.13583697
35	0x3d93f570	0.07224548
36	0x3e35fc41	0.17772008
37	0xbb784df0	-0.0037888251
38	0x3e0b2360	0.13587713
39	0x3d155a84	0.036463276
40	0x3d99bdd3	0.07506909
41	0x3e07e1bb	0.13269703
42	0x3e331459	0.17488231
43	0x3da01324	0.07816151
44	0x3e0149a7	0.12625752
45	0x3e3c0baf	0.18363832
46	0x3ab9c6f6	0.0014173675
47	0x3e46c31f	0.1941037
48	0x3d465a23	0.048425805
49	0x3dcb4601	0.099254616
50	0x3d0c9489	0.03432134
51	0xbf1b187d	-0.6058424
52	0x3dac0982	0.08400251
53	0x3e88e394	0.26736128
54	0x3d394314	0.045229986
55	0x3d7a17ac	0.06105773
56	0x3e07690e	0.13223669
57	0x3e0f75aa	0.14009729
58	0x3ce69824	0.028148718
59	0x3d89a581	0.067210205
60	0x3e348a65	0.17630918
61	0x3cdbff90	0.02685526
62	0x3e0762b7	0.1322125
63	0x3e3b2ac7	0.18278037

running_mean f4 [64]
0	0x3bb69b9e	0.0055727502
1	0xbdf349f0	-0.11879337
2	0x3de37fd3	0.11108365
3	0x3d7ae0c8	0.061249524
4	0xbdb6d694	-0.08927646
5	0xbc8620a7	-0.016372992
6	0xbc6501cd	-0.01397748
7	0x3fb1a096	1.3877132
8	0x3f9f54ac	1.2447715
9	0x3dd266fe	0.102735505
10	0xbe0a983d	-0.13534637
11	0xbcedb809	-0.029018419
12	0xc0371449	-2.860613
13	0xbd8aab52	-0.06770958
14	0xc02884de	-2.6331096
15	0xbd524aa9	-0.051340733
16	0x40074c33	2.1140258
17	0x3f8a3a1c	1.0798984
18	0xbc42247c	-0.011849519
19	0x3eaf2493	0.3420759
20	0xbcd62a55	-0.026143232
21	0xbb2f1252	-0.00267138
22	0x3d3b35bb	0.04570554
23	0x3b5a1c86	0.0033281161
24	0xbd44151a	-0.047871687
25	0x3cbaf6e3	0.022822803
26	0xbc48296f	-0.01221691
27	0x3d3e4407	0.046451595
28	0x3ca5e05b	0.020248583
29	0xbd7e703e	-0.06211876
30	0xbdf1adf1	-0.11800755
31	0x3e2c149d	0.16804738
32	0xbf1cda3d	-0.61270505
33	0x3da004ce	0.078134164
34	0x3d1f074c	0.03882532
35	0xbfa3f900	-1.2810364
36	0x3dbf129c	0.09329721
37	0x401f914f	2.493244
38	0xbd0f5491	-0.03499276
39	0xbd18f24f	-0.03734046
40	0xbefc90ee	-0.49329323
41	0x401bb1d0	2.4327278
42	0x3bf4ab3f	0.007466703
43	0xbd0f3c94	-0.03496988
44	0x3d80b942	0.06285335
45	0x3e62d20a	0.22150436
46	0xbfe09c08	-1.7547617
47	0xbeeddb22	-0.46456248
48	0xbde9a663	-0.11408689
49	0x3de1e41f	0.11029839
50	0xbdafb7d0	-0.08579981
51	0xbcb2ee3c	-0.021842115
52	0x3dacd0bb	0.0843825
53	0x3de0ba33	0.10973015
54	0x3d2177df	0.03942096
55	0x3e0571dd	0.13031717
56	0xbe2e842f	-0.17042612
57	0xbf637a9b	-0.88858956
58	0xbf4e5d7e	-0.8061141
59	0x3f07958c	0.52962565
60	0xbc9b6d63	-0.018973058
61	0x3c4e3a5f	0.012587159
62	0xbda00826	-0.07814054
63	0x3d9fb937	0.07798999

running_var f4 [64]
0	0x3a53f3c1	0.00080853334
1	0x3d862e1e	0.06551765
2	0x3df74e3c	0.12075469
3	0x3de790bd	0.113069035
4	0x3e03e6bb	0.12880985
5	0x3a1cb7f5	0.00059783395
6	0x3e54fb7b	0.20799057
7	0x3e62ae50	0.22136807
8	0x3e2648d2	0.16238716
9	0x3d9f584d	0.07780514
10	0x3da0f3dd	0.07859013
11	0x3d863165	0.0655239
12	0x3e5463e1	0.20741226
13	0x3e25d8b2	0.16195944
14	0x3d848008	0.064697325
15	0x3e520c83	0.20512585
16	0x3e0f76b0	0.1401012
17	0x3dd82305	0.105535544
18	0x3b0767f7	0.0020661333
19	0x3d44b902	0.048028
20	0x3e12e1e2	0.1434398
21	0x3e461c32	0.19346693
22	0x3de6c90b	0.11268815
23	0x3c9c6609	0.019091623
24	0x3dde5ea3	0.10857894
25	0x3d63bfb5	0.055602748
26	0x3e05530f	0.13019966
27	0x3d9f780d	0.0778657
28	0x3d8e4398	0.06946486
29	0x3df53b0d	0.11974154
30	0x3de25ac8	0.110524714
31	0x3d1ff881	0.03905535
32	0x3cc55097	0.02408628
33	0x3d377946	0.04479339
34	0x3d623891	0.055229727
35	0x3e4f0b78	0.20219219
36	0x3e1704b1	0.14747883
37	0x3e702161	0.23450233
38	0x3dc4acfe	0.09603308
39	0x3cba3fbb	0.022735467
40	0x3ca16bfd	0.019704813
41	0x3e3c97c5	0.1841727
42	0x3e05cbbd	0.13066001
43	0x3b420721	0.00296063
44	0x3ddb473e	0.10706948
45	0x3d0ba22f	0.034090217
46	0x3dd5624f	0.104191415
47	0x3e08013c	0.13281721
48	0x3e609f74	0.21935827
49	0x3d10042e	0.035160236
50	0x3d8f2334	0.06989136
51	0x3a80c729	0.0009824979
52	0x3e67d87d	0.22641177
53	0x3dfbce04	0.12295154
54	0x3e191e73	0.14953022
55	0x3d719401	0.05897904
56	0x3de29a57	0.11064594
57	0x3d685bf9	0.056728337
58	0x3ce85e7e	0.02836537
59	0x3e065fc7	0.13122474
60	0x3e2bd512	0.16780499
61	0x3dd09a7c	0.101857156
62	0x3d865a41	0.06560183
63	0x3e834ee2	0.2564612

weight f4 [128, 64, 4, 4]
0	0xbd4c3b8c	-0.049861476
1	0x3cc12519	0.02357726
2	0xbd0be76b	-0.034156244
3	0x3cb4adc7	0.02205552
4	0x3cb7853d	0.0224024
5	0x3d52fe9c	0.051512346
6	0x3c22e38a	0.009941945
7	0xbcd54a4b	-0.026036402
8	0x3cc375c7	0.023859872
9	0x3b9fb1bf	0.004873484
10	0xbd5027af	-0.050819095
11	0xbcc76253	-0.024338877
12	0xbd427baa	-0.047481216
13	0xbd813daa	-0.063105896
14	0xbd0805e0	-0.033208728
15	0xbcb3e852	-0.021961365
16	0xbdb964f8	-0.090524614
17	0xbbe72b55	-0.007054726
18	0x3d007469	0.031361017
19	0x3becd73c	0.0072278064
20	0x3d236a5c	0.039896354
21	0x3d3cc1e5	0.04608335
22	0x3d8ff2bb	0.07028719
23	0x3d250765	0.040290255
24	0x3cbe3021	0.023216309
25	0x3d5538ee	0.052056246
26	0x3c6e579b	0.014547254
27	0x3c3ef91e	0.011656074
28	0x3cba39c0	0.022732615
29	0x3cddc89c	0.027073197
30	0x3c844bbb	0.016149392
31	0x3cabe887	0.020984901
32	0x3dbe48cf	0.09291231
33	0xbcef7183	-0.029228931
34	0x3e2df6e8	0.16988719
35	0x3d58f494	0.052967623
36	0x3d2d0d56	0.042249046
37	0x3d5caa6b	0.05387346
38	0x3d8f828c	0.07007322
39	0x3c1c7416	0.009549161
40	0x3d04ca53	0.032419514
41	0xbb68a6e9	-0.0035499877
42	0x3d330fad	0.04371612
43	0x3d1a8802	0.037727363
44	0x3d91a548	0.07111603
45	0xbcfe7cd6	-0.031065386
46	0x3d678697	0.05652484
47	0xbd5cd95f	-0.05391824
48	0x3c86b144	0.016441949
49	0xbdd5208c	-0.104065984
50	0xbd559279	-0.05214164
51	0x3d30d35f	0.04317033
52	0x3c69b124	0.014263425
53	0xbd222794	-0.039588526
54	0x3d311191	0.043229643
55	0xbca0abd3	-0.019613182
56	0xbcad6d8f	-0.021170406
57	0xbd4620a2	-0.048370965
58	0xbddfa94a	-0.10920961
59	0xbd594a7a	-0.053049542
60	0x3ce2757f	0.027643917
61	0xbca12aba	-0.019673694
62	0xbd99e6ba	-0.07514711
63	0xbc619b01	-0.013769866
64	0xbd6a8a91	-0.057261053
65	0xbc64d81a	-0.013967538
66	0xbb4cb31b	-0.0031234685
67	0x3b8857cc	0.004160857
68	0xbdfc2faa	-0.12313779
69	0x3d0a3d6f	0.033749994
70	0x3c31cc3b	0.010851915
71	0x3c5bf195	0.013424297
72	0xbd31db11	-0.04342181
73	0xbbf73ff4	-0.0075454656
74	0xbdd13238	-0.102146566
75	0x3d5fd92d	0.054650474
76	0xbd869930	-0.06572187
77	0xbd349c60	-0.044094443
78	0x3c8ac389	0.016938942
79	0xbce4f257	-0.027947588
80	0x3de8ef8b	0.11373814
81	0x3d910930	0.070818305
82	0x3d50f1dc	0.051011905
83	0xb9d1cd24	-0.00040016428
84	0x3c983c41	0.018583419
85	0x3d9cc89e	0.07655452
86	0xbcf49416	-0.02985577
87	0x3d90898d	0.07057486
88	0x3d91054a	0.07081087
89	0x3d761feb	0.060089033
90	0x3cccbc61	0.02499217
91	0x3dc975f5	0.09836952
92	0x3d0c7cea	0.034298815
93	0x3da1d914	0.079027325
94	0xbc116e6d	-0.008876425
95	0x3d43d2d1	0.047808472
96	0x3d24e5d8	0.04025826
97	0x3d99ec87	0.07515817
98	0x3cadc177	0.021210415
99	0x3bf4608a	0.0074577974
100	0xbbc5b434	-0.006033445
101	0x3dd146c7	0.10218578
102	0x3c04141b	0.008061434
103	0xbe15dafc	-0.14634317
104	0xbbd544ff	-0.006508469
105	0xba5d3897	-0.00084389135
106	0xbd7b44d2	-0.06134493
107	0xbde51b97	-0.11186903
108	0xbc1ebfd8	-0.009689294
109	0x3d463e3c	0.048399195
110	0x3d548f85	0.051894683
111	0xbc90acb8	-0.017660484
112	0xbcd4fe89	-0.026000278
113	0xbd7d147d	-0.061787117
114	0xbda7674f	-0.081740014
115	0xbd456eed	-0.04820149
116	0xbd5947cb	-0.053046983
117	0xbdf23521	-0.1182654
118	0xbdad9892	-0.08476366
119	0xbdbd3374	-0.092383295
120	0xbd8733bb	-0.06601664
121	0xbd5e5eff	-0.054289814
122	0xbe10ae28	-0.14128935
123	0xbe172351	-0.14759566
124	0xbde5703b	-0.11203047
125	0x3cc6ded7	0.02427618
126	0xbdfa2748	-0.122145236
127	0xbe246fac	-0.16058224
128	0x3b58f1e7	0.003310317
129	0xbd8f0f72	-0.06985368
130	0x3d5ce5a8	0.053929955
131	0x3dbd71b7	0.09250205
132	0x3d5b0b17	0.053477373
133	0xbd1f4d65	-0.03889217
134	0x3e07ed59	0.13274135
135	0x3e02dc41	0.12779333
136	0xbb42bcb5	-0.002971453
137	0x3d0bc3f5	0.034122426
138	0x3cd25f34	0.025680162
139	0x3c94e61d	0.018176133
140	0x3e19eebb	0.15032475
141	0xbb7e0122	-0.0038758
142	0x3d69a5dd	0.057042945
143	0xbb8d6dfc	-0.0043160897
144	0xbd762eff	-0.060103413
145	0xbd5c90fd	-0.05384921
146	0xbd82e57f	-0.06391429
147	0xbcaad43d	-0.020853156
148	0xbd62d10f	-0.055375155
149	0xbc9b338a	-0.018945474
150	0x3cb4f686	0.022090208
151	0x3b380a44	0.002808229
152	0x3d13c8a9	0.036080036
153	0xba7e8efe	-0.00097106386
154	0xb9c6fd07	-0.00037954023
155	0xbcfe55ef	-0.031046836
156	0x3d230b92	0.039805956
157	0xbae84896	-0.0017721828
158	0x3d158344	0.036502138
159	0xbd7d1b08	-0.061793357
160	0xbd168ff5	-0.036758382
161	0xbda31ac2	-0.07964088
162	0xbcae3a45	-0.02126802
163	0xbb682f1b	-0.0035428468
164	0xbd490fd2	-0.049087353
165	0xbd630f39	-0.05543444
166	0x3c161ea8	0.009162582
167	0xbc8b5d15	-0.017012158
168	0xbe0859df	-0.13315533
169	0xbdd36a7a	-0.10323043
170	0x3bafd61c	0.0053661
171	0x3a9a532a	0.0011774052
172	0xbe0d410a	-0.13794342
173	0xbd2bd375	-0.041949708
174	0x3d2a3337	0.04155275
175	0x3ba9c801	0.005181313
176	0xbc8f0beb	-0.017461738
177	0xbd417ceb	-0.04723827
178	0x3cc27477	0.023737175
179	0x3da7ff74	0.08203021
180	0xbcb7aa92	-0.022420201
181	0xbcd90f42	-0.026496533
182	0x3d3bb755	0.045829136
183	0x3cd53cce	0.02602997
184	0xbd52c008	-0.051452667
185	0xbd81b955	-0.063341774
186	0x3c13ab38	0.00901299
187	0x3ca3920a	0.019967098
188	0xbdf5b3b6	-0.11997168
189	0xbdd3e10c	-0.10345659
190	0x3c980b78	0.018560156
191	0x3d82b20f	0.06381618
192	0xbd1fe2ef	-0.03903478
193	0xbd59d481	-0.053181175
194	0xbd1a53a0	-0.037677407
195	0xbd649ccd	-0.0558136
196	0x3c997013	0.018730199
197	0xbc8edc51	-0.01743904
198	0x3ca70bdc	0.020391397
199	0xbd942a56	-0.072346374
200	0x3ca0ed35	0.01964436
201	0x3cbca9e8	0.023030236
202	0x3d5d9d71	0.054105226
203	0xbdf12856	-0.117752716
204	0x3c68cf8e	0.014209641
205	0x3c669857	0.014074407
206	0x3c95ff7e	0.018310305
207	0xbd83a99a	-0.06428833
208	0xbd83cc6e	-0.06435476
209	0xbb934f62	-0.004495547
210	0x3c12a466	0.008950328
211	0xbd9a3913	-0.07530417
212	0x3bf999ea	0.007617225
213	0x3b02346a	0.0019867667
214	0xbd9ae60b	-0.075634085
215	0xbd871235	-0.065952696
216	0xbd0ff417	-0.03514489
217	0xbc5f8c78	-0.01364433
218	0xbde6d68d	-0.11271391
219	0x3d04b808	0.03240207
220	0xbcfcefa7	-0.030875994
221	0x3c9ea2bb	0.019364705
222	0xbc67a297	-0.0141378855
223	0x3d2406a2	0.040045388
224	0x3c0f9783	0.008764151
225	0x3ba15096	0.0049229367
226	0x3dc6af86	0.09701447
227	0x3bcb1c91	0.0061984737
228	0xbcc7c494	-0.024385728
229	0x3c9d86ff	0.01922941
230	0x3d992ca7	0.0747922
231	0x3daa17b9	0.08305306
232	0xbc2f3352	-0.010693388
233	0x3dd08865	0.10182265
234	0x3d41d9bf	0.0473268
235	0x3d893dd6	0.067012474
236	0x3ca9f378	0.020745978
237	0xbb16a282	-0.0022985046
238	0xbd6b9ec5	-0.05752446
239	0x3b4b2d26	0.0031002252
240	0x3e0ddb6a	0.13853231
241	0x3dcb5deb	0.09930023
242	0x3e115dbe	0.14195916
243	0x3dc0c5dc	0.09412739
244	0x3e09f41b	0.13472025
245	0x3e1c8ba1	0.15287639
246	0x3dcedc2f	0.101005904
247	0x3e05319e	0.13007209
248	0x3d85f0cb	0.06540068
249	0x3d806e93	0.0627109
250	0x3d3da2d1	0.046297852
251	0x3ca5fb45	0.020261416
252	0x3d98a6ee	0.07453714
253	0x3d74ca3a	0.05976317
254	0xbcab20db	-0.02088969
255	0x3c4c4e91	0.012469904

bias f4 [128]
0	0x3b483bee	0.00305533
1	0x3d7142cf	0.058901604
2	0x3d069e66	0.032865904
3	0x3d350bb9	0.044200633
4	0xbd64a272	-0.055818982
5	0xbd5a3b29	-0.053279076
6	0x3da68deb	0.081325375
7	0x3e0342c0	0.12818432
8	0xbd9b4843	-0.07582142
9	0xbda05887	-0.07829385
10	0xbdeddcf0	-0.11614406
11	0xbd728f59	-0.05921874
12	0x3d3e0c28	0.04639831
13	0xbb17f86b	-0.002318884
14	0x3bbceb43	0.00576535
15	0x3cb9dc01	0.022687914
16	0x3cc9748d	0.024591709
17	0x3b9495a5	0.0045344406
18	0x3dd888e5	0.105729856
19	0x3d66a341	0.056308035
20	0x3d018580	0.031621456
21	0x3d677a7b	0.05651329
22	0x3d7dff35	0.062010963
23	0x3d3838c9	0.04497603
24	0xbd67e7da	-0.056617595
25	0xbbc4cd28	-0.006005902
26	0xbd2d646b	-0.042332094
27	0xbdc048a8	-0.09388858
28	0x3d822428	0.063545525
29	0x3cf4a7d8	0.02986519
30	0x3c90d28a	0.017678518
31	0x3c878dec	0.016547166
32	0x3d0f367a	0.034964062
33	0x3d115f56	0.03549131
34	0xbbc235bc	-0.005926816
35	0x3c8543fa	0.016267765
36	0x3d8591ad	0.06521926
37	0x3d18ff0c	0.037352607
38	0x3c6d3b59	0.014479482
39	0x3d0251dd	0.031816352
40	0x3d633d6d	0.055478502
41	0x3c2bd467	0.010487652
42	0x3cd67d7e	0.026182886
43	0xbc2a86aa	-0.010408083
44	0xbd55b53e	-0.0521748
45	0xbbaadf5d	-0.0052146153
46	0xbc554e26	-0.01301912
47	0xbc53bc8a	-0.012923369
48	0x3d2afb6a	0.041743673
49	0xbdaff4ca	-0.08591612
50	0x3d68592e	0.056725673
51	0x3e1a1071	0.15045334
52	0x3dd0b7cb	0.10191306
53	0x3c4a2509	0.012337931
54	0xbc331ba7	-0.010931886
55	0x3b56d17d	0.0032778673
56	0x3d61c351	0.05511791
57	0xbc141da4	-0.00904027
58	0x3d9b6325	0.0758727
59	0xbc5f3dde	-0.01362559
60	0xbbd547d9	-0.006508809
61	0x3d1df9ca	0.038568296
62	0x3d23b697	0.039969053
63	0x3dadda9b	0.08488961
64	0xbce9094b	-0.028446814
65	0xbcdb83a4	-0.02679617
66	0xbd0a4d4c	-0.033765122
67	0x3d07d7b0	0.03316468
68	0x3ceab9cb	0.028653046
69	0xbdfffaa3	-0.12498977
70	0x3ca68bea	0.020330388
71	0x3d110ac9	0.035410676
72	0xbd823bc6	-0.06359057
73	0xbe8b57fe	-0.2721557
74	0x3c1beadb	0.009516443
75	0xbd34136c	-0.043963835
76	0xbc3326fe	-0.010934589
77	0x3dd6a5b9	0.10480828
78	0xbc654217	-0.013992808
79	0xbd1323ff	-0.035923
80	0x3e2a5939	0.16635598
81	0x3d857be3	0.0651777
82	0x3c4493dc	0.011998143
83	0xbd15e489	-0.0365949
84	0x3d21f484	0.03953983
85	0xbd90b2a6	-0.070653245
86	0xbd271f6f	-0.04080146
87	0xbc5722be	-0.013130842
88	0xbe0df634	-0.1386345
89	0xbd8c160a	-0.06840141
90	0xbc6c8dbd	-0.01443809
91	0xbd5d400f	-0.05401617
92	0xbb67e0dc	-0.003538183
93	0xbc2cbd46	-0.010543173
94	0x3d5fc6cc	0.054632947
95	0x3a8ab65b	0.0010582911
96	0x3dda1806	0.10649113
97	0x3dac1ecf	0.08404314
98	0x3d9e9a3f	0.07744264
99	0xbc297e63	-0.010345074
100	0xbd456e7d	-0.048201073
101	0xbd764b2c	-0.060130283
102	0x3e0a6192	0.13513783
103	0xbd72e41e	-0.05929958
104	0x3d7401a4	0.059571877
105	0xbe6242a3	-0.22095732
106	0x3cdf60a9	0.02726777
107	0xbc62df78	-0.013847224
108	0xbe08aaa9	-0.13346352
109	0x3c4534b8	0.012036495
110	0xbcb4f78c	-0.022090696
111	0xbb938e9c	-0.0045030843
112	0xbbd215d5	-0.006411294
113	0xbd5b1374	-0.05348535
114	0x3d0900af	0.033447918
115	0xbccdf253	-0.025139963
116	0x3db2384e	0.087021455
117	0x3b529a0a	0.0032135271
118	0xbccb5ee5	-0.024825523
119	0xbd2cdd71	-0.04220337
120	0x3d79fe7b	0.061033707
121	0x3d2bf78d	0.04198413
122	0xbd088725	-0.03333201
123	0x3d0ab370	0.03386253
124	0x3d1da1ef	0.03848451
125	0xbcb0b52e	-0.021570768
126	0xbd5dac25	-0.054119248
127	0xbcbc3944	-0.022976525

weight f4 [128]
0	0x3d8c753b	0.068582974
1	0x3e02ecaf	0.127856
2	0x3d84ea6e	0.064900264
3	0x3d7a0e7d	0.061048973
4	0x3dcba4e7	0.09943562
5	0x3d25d8c1	0.040489916
6	0xbd75ae81	-0.059980873
7	0x3d26f97c	0.04076527
8	0x3d8395ae	0.064250335
9	0x3d832292	0.06403078
10	0x3d8d6c02	0.069053665
11	0x3d3c58b0	0.045983016
12	0x3da0f612	0.07859434
13	0xbdaabe3a	-0.08337064
14	0xbda64080	-0.08117771
15	0x3db41bfa	0.087943986
16	0x3d9f1112	0.07766928
17	0xbd827df2	-0.063716784
18	0xbdc15978	-0.09440893
19	0x3d873908	0.06602675
20	0x3d5ffcb7	0.054684367
21	0x3ca3f4c8	0.020014182
22	0xbd2af792	-0.041740008
23	0xbd3dcc5e	-0.046337478
24	0xbd897270	-0.0671128
25	0xbd0da5fb	-0.03458212
26	0xbdc749dc	-0.097308844
27	0xbd8826aa	-0.066479996
28	0x3d72e68b	0.059301894
29	0x3d449172	0.04799027
30	0xbdb22b71	-0.08699692
31	0xbd3286f6	-0.04358574
32	0x3d359cea	0.044339098
33	0x3d8d8ea2	0.06911971
34	0xbda525c0	-0.08063841
35	0x3dec356e	0.115336284
36	0x3d1c94fb	0.038228016
37	0x3d9974c8	0.074929774
38	0x3d935dab	0.071956
39	0xbd45c5a0	-0.048284173
40	0x3d2536e9	0.04033557
41	0x3d3ea871	0.046547357
42	0xbd9aed34	-0.07564774
43	0x3da701a8	0.08154613
44	0x3d174fe9	0.036941443
45	0x3d817599	0.06321258
46	0xbd5d00f4	-0.053955987
47	0xbdb61f93	-0.08892741
48	0xbd863e80	-0.0655489
49	0xbd0d8f71	-0.034560625
50	0x3d64e8c1	0.055886034
51	0xbd9d98aa	-0.07695134
52	0x3d55a158	0.052155823
53	0x3d5b89dd	0.053598274
54	0x3ddce74d	0.107863046
55	0x3de1821d	0.11011145
56	0xbd4a6d90	-0.049420893
57	0x3e1504d9	0.1455263
58	0xbdb82b99	-0.089926906
59	0x3d92b3a3	0.07163169
60	0x3ccf9b49	0.0253426
61	0xbd4879c5	-0.048944253
62	0x3d84c70c	0.06483278
63	0xbddd22a8	-0.10797626
64	0x3dc0da4a	0.09416635
65	0x3da9bb05	0.08287624
66	0x3d9a15d5	0.075236954
67	0xbd897c95	-0.06713215
68	0xbd0dd7a2	-0.03462947
69	0x3dea3eaa	0.114377335
70	0x3d9ef418	0.07761401
71	0xbd7a1bad	-0.06106155
72	0x3dc207af	0.09474122
73	0x3df2aaaf	0.118489616
74	0x3dbc9976	0.09208958
75	0x3d2e169b	0.042502027
76	0x3dc83c69	0.09777147
77	0x3d8ff203	0.07028582
78	0x3daa6caf	0.08321511
79	0xbdc0e0fa	-0.09417911
80	0x3d4912ef	0.049090322
81	0xbd21609e	-0.039398782
82	0xbd9d45d6	-0.07679336
83	0x3cb39117	0.02191977
84	0x3d90a7e9	0.07063276
85	0x3d63a1e0	0.055574298
86	0xbd86fc23	-0.0659106
87	0xbdd1f11d	-0.10251067
88	0xbdd79981	-0.105273254
89	0xbdb33517	-0.087503605
90	0xbdaa5001	-0.08316041
91	0x3e075e7b	0.13219635
92	0xbdc06b25	-0.09395436
93	0xbdd76875	-0.105179705
94	0x3d4d4e3c	0.05012344
95	0x3db01d96	0.08599393
96	0xbda14a84	-0.07875541
97	0xbd76ff72	-0.060302205
98	0xbd9af55a	-0.07566328
99	0xbd8d9c4d	-0.06914578
100	0x3d8abfb2	0.06774844
101	0x3dc7e04c	0.09759578
102	0xbda3df4f	-0.08001577
103	0x3da175e5	0.07883815
104	0xbd8ebfa3	-0.069701456
105	0xbd8387c2	-0.06422378
106	0x3d836dd4	0.064174324
107	0x3db77ed1	0.08959735
108	0xbd8b4c92	-0.06801714
109	0xbd908678	-0.07056898
110	0xbdaaba92	-0.08336367
111	0x3d124c6c	0.035717413
112	0x3d98f538	0.07468647
113	0xbdbe5d76	-0.0929517
114	0x3dacd262	0.08438565
115	0x3e1fc8c2	0.15603927
116	0x3d5ba2cb	0.05362205
117	0xbd76c05a	-0.060242034
118	0xbde20f4f	-0.11038076
119	0xbce05dd2	-0.027388487
120	0x3d93a38e	0.0720893
121	0xbd3d64aa	-0.04623858
122	0xbd9a88b9	-0.07545609
123	0x3dc0bf6f	0.09411513
124	0x3d886650	0.066601396
125	0xbd3ae209	-0.04562572
126	0x3d94be8f	0.07262909
127	0x3dc89955	0.09794871

bias f4 [128]
0	0xbdd9db43	-0.10637524
1	0xbe364851	-0.17801024
2	0x3e92919f	0.28626725
3	0xbcf0113c	-0.029305093
4	0x3c62c168	0.013840057
5	0x3d3adeba	0.045622565
6	0x3d064e4b	0.03278951
7	0x3e0ac7a8	0.13552725
8	0x3d91576b	0.07096752
9	0x3d90d9b6	0.07072775
10	0xbd491cc6	-0.049099706
11	0x3e1d43db	0.15357916
12	0x3dde07e9	0.108413525
13	0x3caae701	0.020862104
14	0xbda97f9c	-0.08276293
15	0x3e1edbc0	0.15513515
16	0xbd0a5932	-0.03377647
17	0xbc02ab96	-0.00797548
18	0x3bb3c6d2	0.0054863477
19	0x3c49985c	0.012304392
20	0x3e03336c	0.12812585
21	0xbd47295c	-0.048623428
22	0x3e3536f8	0.1769675
23	0x3dd22e40	0.10262728
24	0xbd76349a	-0.06010876
25	0x3e375c34	0.17906266
26	0x3c9ea658	0.019366428
27	0x3d0cf470	0.0344128
28	0x3db582b2	0.08862819
29	0x3e4344a7	0.19069158
30	0xbd466b4f	-0.04844218
31	0x3dd20ffb	0.10256954
32	0x3d70e966	0.058816336
33	0x3bbe8d37	0.005815174
34	0x3d23a82c	0.039955303
35	0xbd82044b	-0.06348475
36	0x3e133a4e	0.1437771
37	0x3e082412	0.1329501
38	0x3e054e09	0.1301805
39	0x3e062973	0.13101749
40	0xbe2c99bb	-0.16855519
41	0x3e36367e	0.17794225
42	0x3d2ce761	0.042212848
43	0x3e0f13a4	0.13972336
44	0xbe0b8769	-0.13625874
45	0x3db6aa5e	0.08919214
46	0x3e14ebee	0.14543125
47	0x3d721ae4	0.059107676
48	0xbe22db91	-0.1590407
49	0x3dca076d	0.098646976
50	0x3dbf2082	0.09332372
51	0xbbc9eabb	-0.0061620153
52	0x3d55a339	0.052157614
53	0x3e3f011b	0.18652765
54	0xbe20eaf3	-0.15714626
55	0x3d64df55	0.05587705
56	0x3d0dc609	0.03461269
57	0xbdfdaab1	-0.123860724
58	0x3d52e5e8	0.051488787
59	0xbcca1b56	-0.024671238
60	0x3e3fc8c6	0.18728933
61	0x3d0a3bbc	0.033748373
62	0xbe0a7ab6	-0.13523373
63	0xbe4a81f5	-0.19776137
64	0xbd34b77e	-0.044120304
65	0x3cf07fec	0.029357873
66	0x3d6e5e17	0.0581952
67	0x3cd94664	0.026522823
68	0x3dc29bb1	0.09502352
69	0xbc844081	-0.01614404
70	0xbe1aed78	-0.1512965
71	0x3d123415	0.0356942
72	0xbd9712f2	-0.073766604
73	0xbdb9530e	-0.090490445
74	0xbd86beef	-0.065793864
75	0x3e12743e	0.14302155
76	0xbe33fa36	-0.17575917
77	0x3d93c504	0.07215312
78	0xbbfa9011	-0.0076465686
79	0x3dfda5d9	0.123851486
80	0x3e36d99c	0.17856449
81	0x3d6351d9	0.055497978
82	0x3d3bef87	0.045882728
83	0x3b80d9fe	0.0039322367
84	0xbe1529ec	-0.14566773
85	0xbe4dd40a	-0.20100418
86	0xbd0ddfbd	-0.0346372
87	0xbd122e96	-0.03568896
88	0xbe36f0c9	-0.1786529
89	0x3d8b7fdc	0.068114966
90	0xbdb5b50b	-0.08872422
91	0xbe114662	-0.14187005
92	0x3e1e1997	0.15439449
93	0xbe38823d	-0.18018432
94	0x3e05abde	0.13053843
95	0xbe3b2d93	-0.18279104
96	0xbc56bbe4	-0.01310632
97	0x3dbab12a	0.091158226
98	0xbbe24e18	-0.006906282
99	0xbc841c8f	-0.016126899
100	0x3cfd2332	0.030900571
101	0xbe59cba6	-0.21269092
102	0x3da16a5b	0.07881614
103	0x3dc177b6	0.09446661
104	0x3d186505	0.037205715
105	0x3d1d70ae	0.038437538
106	0x3cc62f29	0.02419241
107	0xbc32ceb0	-0.010913536
108	0xbe267fd8	-0.16259706
109	0x3e29cc6e	0.1658189
110	0x3c2e2591	0.010629074
111	0x3e17368b	0.147669
112	0x3cc55fb1	0.02409348
113	0x3d261a16	0.04055222
114	0xbc423838	-0.011854224
115	0xbe324354	-0.17408496
116	0x3e8d317a	0.2757681
117	0x3df1dc0c	0.11809549
118	0x3d65f897	0.056145277
119	0x3dda98b3	0.10673656
120	0x3d8ab474	0.067727
121	0xbde011d5	-0.10940901
122	0x3d461e72	0.04836888
123	0xbde6c896	-0.112687275
124	0x3da7c2f2	0.0819148
125	0x3dd7b2aa	0.10532124
126	0x3dc950a9	0.09829838
127	0xbb606cfa	-0.0034244643

running_mean f4 [128]
0	0xbfa91cbe	-1.3211896
1	0xbf303296	-0.6882719
2	0x3f039fb5	0.5141557
3	0x3e315487	0.17317401
4	0xbec7754b	-0.38956675
5	0xbf01c622	-0.5069295
6	0x3f977264	1.1831784
7	0xbfcd935b	-1.6060594
8	0xbfc772de	-1.558193
9	0xbf9736ae	-1.1813562
10	0xbfd0c66a	-1.6310551
11	0xbe8fdfd3	-0.28100452
12	0xbf2251fe	-0.6340636
13	0xbdf759d4	-0.1207768
14	0x3f185dc2	0.59518063
15	0xbf24209a	-0.64112246
16	0xbe774ba7	-0.24149953
17	0x3f5fa82c	0.87365985
18	0x3f8f0c47	1.1175622
19	0x3e34a791	0.17642047
20	0xbe3ac402	-0.18238834
21	0x3e56ad67	0.20964585
22	0x3fee90f9	1.8637992
23	0x3f3e14b9	0.7425037
24	0x3ef99f59	0.48754385
25	0xbf934b2a	-1.1507313
26	0xbfe6be91	-1.8026906
27	0x3f4d802c	0.802737
28	0x3f3490c5	0.705334
29	0xbf469c60	-0.7758236
30	0x3eaabaab	0.3334554
31	0xbf65c2a9	-0.8975015
32	0xbee894a8	-0.45425916
33	0x3e82c4b4	0.25540698
34	0x3f511cd6	0.81684625
35	0x3e9c0267	0.30470583
36	0xbfa806fd	-1.3127133
37	0x3f7eb424	0.9949362
38	0x3efbc1b3	0.49171218
39	0x3f7bcf5a	0.9836327
40	0xbeda1121	-0.42591193
41	0xbe8dff13	-0.2773367
42	0xbe08c57f	-0.13356589
43	0x3e9fad08	0.311867
44	0x3e1934ad	0.149615
45	0xbec0f531	-0.37687066
46	0x3f32a1ba	0.69778025
47	0x3f05c112	0.52247727
48	0xbf375779	-0.7161785
49	0x3f542f45	0.8288463
50	0x3f1057a2	0.5638372
51	0xbe986cac	-0.2977041
52	0xbe8d26c7	-0.27568647
53	0x3e7a4c7e	0.24443242
54	0xbfa28626	-1.2697189
55	0xbfc7141e	-1.5553014
56	0xbf5489c7	-0.8302273
57	0xbf834be4	-1.0257535
58	0x3ece00eb	0.40235075
59	0x3edd29df	0.43196008
60	0xbebdbf04	-0.37059796
61	0x3e71b172	0.23602846
62	0x3ec5e055	0.38647714
63	0x3f18c5db	0.59676903
64	0x3f35b831	0.7098418
65	0x3f049f00	0.51805115
66	0x3d679f01	0.056548122
67	0xbe3add4f	-0.18248485
68	0x3e10059d	0.14064641
69	0xbfc36a19	-1.5266753
70	0xbeb4ceff	-0.35314175
71	0xbf885b58	-1.0652876
72	0xbfb606bd	-1.4220806
73	0x3f59954b	0.8499343
74	0xbe655c04	-0.22398382
75	0x3f2092f2	0.6272422
76	0xbfa166fd	-1.2609555
77	0xbfbc6c3b	-1.4720529
78	0x3d098c6d	0.033581186
79	0xbef37f55	-0.47558084
80	0xbff43242	-1.9077837
81	0x3f0ed7cc	0.5579803
82	0x3f0d5427	0.5520653
83	0x3f332ec2	0.6999322
84	0x3f03c506	0.5147251
85	0xbf6e1629	-0.93002564
86	0x3e888860	0.26666546
87	0x3f1cd0d2	0.61256135
88	0xbe1b4e7b	-0.15166657
89	0xbf95f5b1	-1.1715604
90	0xbeffe7b7	-0.49981472
91	0xbf48d0f1	-0.7844382
92	0x3f5aff43	0.8554575
93	0xbf115f57	-0.567861
94	0x3efa202b	0.48852667
95	0xbd4473bb	-0.04796193
96	0x3f82cbba	1.0218422
97	0xbedbd478	-0.42935538
98	0x3faecb4a	1.3655789
99	0x3f50a554	0.8150227
100	0xbf1bdd3e	-0.60884464
101	0xbe28d943	-0.16489129
102	0xbe43acad	-0.1910884
103	0xbf77d2b2	-0.9680587
104	0xbef94a0c	-0.48689306
105	0x3f8c64cb	1.096826
106	0xbe3a8bef	-0.18217443
107	0xbf238bd0	-0.6388521
108	0xbe6b015c	-0.22949737
109	0x3db9743e	0.090553746
110	0x3cd76a9f	0.026295958
111	0x3f08eca2	0.53486073
112	0xbe705efe	-0.23473737
113	0x3f318a84	0.69351983
114	0xbf6854ce	-0.907544
115	0x3f4cffe9	0.8007799
116	0xbf6021d8	-0.8755164
117	0x3f855973	1.0417923
118	0x3f664c74	0.8996041
119	0x3f911b15	1.133639
120	0x3f476dc7	0.7790188
121	0x3f8b6aeb	1.0892004
122	0x3ea89f09	0.32933834
123	0xbf2a7f06	-0.6660007
124	0xbf2e6dd3	-0.6813633
125	0xbf12c6c7	-0.5733456
126	0xbf15557f	-0.5833358
127	0xbd38a88c	-0.045082614

running_var f4 [128]
0	0x3c856864	0.016285129
1	0x3e6d7c93	0.23192053
2	0x3e6e4c6c	0.2327134
3	0x3d3d4153	0.046204876
4	0x3da6828d	0.08130369
5	0x3db4d472	0.08829583
6	0x3d547190	0.051866114
7	0x3e9809ba	0.2969492
8	0x3e967e00	0.29393005
9	0x3e24c2cb	0.16089933
10	0x3d846cfe	0.06466101
11	0x3de08412	0.109626904
12	0x3e2221b2	0.15833166
13	0x3ec3039c	0.3808869
14	0x3dd68251	0.10474075
15	0x3da06688	0.07832056
16	0x3d19b662	0.03752745
17	0x3e2bd7c8	0.16781533
18	0x3ca4d983	0.020123249
19	0x3dcca778	0.0999288
20	0x3d58912a	0.052872814
21	0x3e247fe2	0.16064408
22	0x3d2aba13	0.04168136
23	0x3e2be9eb	0.16788451
24	0x3d414dad	0.047193218
25	0x3e238481	0.15968515
26	0x3e316b3f	0.17326067
27	0x3e1f70df	0.155704
28	0x3d43047a	0.04761169
29	0x3e3cc9ee	0.18436405
30	0x3e221ebd	0.15832038
31	0x3e108920	0.14114809
32	0x3e279035	0.16363604
33	0x3dd5ce76	0.1043977
34	0x3e07412c	0.13208455
35	0x3cf4b09d	0.029869372
36	0x3e13ed30	0.14445949
37	0x3d9de82d	0.077103
38	0x3e4f2f49	0.20232882
39	0x3d7c95b3	0.0616662
40	0x3eb64b6a	0.3560441
41	0x3e3f4e9b	0.1868233
42	0x3e8c9144	0.2745458
43	0x3e8571bf	0.26063344
44	0x3ece7d50	0.4032998
45	0x3cde266b	0.027117928
46	0x3ec04e7c	0.3755988
47	0x3e07a370	0.1324594
48	0x3ed59082	0.41711813
49	0x3e811035	0.25207677
50	0x3d7beb69	0.0615038
51	0x3dc0e7c7	0.09419208
52	0x3de8ba65	0.11363677
53	0x3eb1b563	0.347087
54	0x3ea9ca9d	0.33162394
55	0x3e6ca4bc	0.23109716
56	0x3e2d01b8	0.16895187
57	0x3e72ca1f	0.23709916
58	0x3d76c867	0.060249712
59	0x3e85957d	0.26090613
60	0x3e5b176b	0.21395652
61	0x3c289374	0.010289062
62	0x3dd498e5	0.10380725
63	0x3db2c0ed	0.08728204
64	0x3d79f5b7	0.061025348
65	0x3dc0031c	0.09375593
66	0x3dfd95d1	0.12382091
67	0x3dea295e	0.114336714
68	0x3e8e4386	0.2778589
69	0x3e888245	0.26661888
70	0x3e142e8d	0.14470883
71	0x3dbc827a	0.09204574
72	0x3e69c93c	0.22830671
73	0x3d6e8429	0.058231506
74	0x3ea6efdd	0.32604876
75	0x3e33f96e	0.17575619
76	0x3ddf929c	0.109166354
77	0x3d14e1ef	0.03634828
78	0x3eb0262b	0.3440412
79	0x3deea0f5	0.11651794
80	0x3dd29ebd	0.10284183
81	0x3e13e41c	0.14442486
82	0x3e30b6c3	0.17257218
83	0x3d217436	0.039417468
84	0x3deeb2e0	0.116552114
85	0x3d968a2f	0.07350575
86	0x3d4700f8	0.04858491
87	0x3e53ff0e	0.20702764
88	0x3c83f9ea	0.01611038
89	0x3e008624	0.1255117
90	0x3d92e260	0.07172084
91	0x3ded2c0b	0.11580666
92	0x3dd468c6	0.103715464
93	0x3da73625	0.08164624
94	0x3ed86a3d	0.42268553
95	0x3e4f42b5	0.2024029
96	0x3e06c7de	0.13162181
97	0x3dc5bee6	0.096555516
98	0x3da18c55	0.07888094
99	0x3c9b394e	0.018948223
100	0x3d05d56b	0.032674234
101	0x3dae10db	0.08499309
102	0x3e2bc339	0.1677369
103	0x3e84991a	0.25898057
104	0x3eb34fc4	0.35021794
105	0x3dd8c2f9	0.10584063
106	0x3c8e02c9	0.017335312
107	0x3e07c3ba	0.13258258
108	0x3dd83c40	0.10558367
109	0x3e4de5fd	0.20107265
110	0x3e79c293	0.2439063
111	0x3e888223	0.26661786
112	0x3de19306	0.110143706
113	0x3e02f236	0.12787709
114	0x3c623247	0.013805932
115	0x3d88c5b7	0.06678336
116	0x3e80aaaa	0.25130206
117	0x3e857a29	0.26069763
118	0x3e485ea1	0.19567348
119	0x3e541ac8	0.20713341
120	0x3e2af0f6	0.16693482
121	0x3dc671cb	0.09689673
122	0x3ee16a9f	0.44026658
123	0x3e198176	0.14990792
124	0x3d1c503f	0.038162466
125	0x3e0eb939	0.13937844
126	0x3ee1ec36	0.44125527
127	0x3e19d87d	0.1502399

weight f4 [1, 128, 4, 4]
0	0xbe3fc381	-0.18726923
1	0xbda66c45	-0.081261195
2	0xbded4d22	-0.115869775
3	0xbe11284a	-0.14175525
4	0xbdad8b53	-0.084738396
5	0xbd8a6dbc	-0.067592114
6	0xbe2faf22	-0.17156652
7	0xbe1bca84	-0.15213972
8	0xbdd93b52	-0.106070176
9	0xbe161826	-0.1465765
10	0xbddc59e4	-0.10759333
11	0xbe1dcedc	-0.15410942
12	0xbd9b6ad5	-0.07588736
13	0xbda32a01	-0.07966996
14	0xbc05e47a	-0.008172149
15	0xbc91daba	-0.017804492
16	0x3d362f4d	0.044478703
17	0x3e04e1aa	0.12976709
18	0x3de6d440	0.11270952
19	0x3de86989	0.11348254
20	0x3e0664c2	0.13124374
21	0x3dfe88e5	0.12428454
22	0x3e3578b9	0.17721833
23	0x3df5814b	0.11987551
24	0x3c23da79	0.010000818
25	0x3e0eb18d	0.13934918
26	0x3dea6791	0.11445535
27	0x3e336450	0.17518735
28	0x3cf61ba9	0.030042486
29	0x3dc486d6	0.095960304
30	0x3e13d494	0.14436561
31	0x3dbfd25d	0.093662955
32	0x3dea237a	0.11432548
33	0x3d49a333	0.049227905
34	0xbcd1bae0	-0.025601804
35	0xbb28e374	-0.0025770338
36	0x3e201017	0.15631138
37	0xbc9b45e2	-0.018954221
38	0xbca335f3	-0.019923186
39	0xbbc09779	-0.005877432
40	0x3ce07103	0.027397638
41	0xbd162f56	-0.036666237
42	0xbda56a64	-0.08076933
43	0xbe347d40	-0.17625904
44	0x3dabc361	0.08386875
45	0xbde3785d	-0.11106942
46	0xbe1036a0	-0.14083338
47	0xbe06236b	-0.13099448
48	0x3dc17043	0.0944524
49	0x3e1f5dd1	0.15563132
50	0x3e222852	0.15835693
51	0x3e1130b5	0.14178737
52	0x3c6872a1	0.014187486
53	0xbc043db1	-0.008071349
54	0x3d19a321	0.037509087
55	0x3bc878a6	0.006117898
56	0x3dda0567	0.10645562
57	0xbc298bb7	-0.010348252
58	0x3d1ca82c	0.03824632
59	0xbd441735	-0.047873694
60	0x3a9bfc53	0.001190076
61	0x3ded95f5	0.11600868
62	0xbd78cbc3	-0.060741197
63	0x3dc30230	0.095219016
64	0xbc4802c1	-0.012207688
65	0xbdf5e6d5	-0.12006918
66	0xbd7ccb36	-0.061717235
67	0xbe39bb6d	-0.18137904
68	0x3ca1590f	0.019695787
69	0xbd83189e	-0.0640118
70	0xbd023cbd	-0.031796206
71	0xbdcb56ec	-0.099286884
72	0x3ce7c4ae	0.028292026
73	0x3dfc0e9a	0.123074725
74	0x3da6f8b2	0.081529036
75	0x3de3da8d	0.1112567
76	0xbdea9b9e	-0.11455463
77	0x3abab1b9	0.0014243639
78	0xbdad9b9b	-0.08476945
79	0x3e0a5097	0.13507305
80	0xbe1b8b74	-0.15189916
81	0xbcc86466	-0.024461936
82	0xbda738b6	-0.08165114
83	0x3d59b4a6	0.053150795
84	0xbd8aaf7b	-0.067717515
85	0xbdf96f49	-0.12179429
86	0xbbbff891	-0.005858489
87	0xbdb3d3b1	-0.08780611
88	0xbe0b64b7	-0.13612638
89	0xbd9d4fbe	-0.07681225
90	0xbdb9fa7c	-0.09080979
91	0xbd26bd1c	-0.040707693
92	0xbe1240ed	-0.1428258
93	0xbe42a219	-0.19007148
94	0xbe16bbe0	-0.14720106
95	0xbe0910f9	-0.13385381
96	0xbe22a269	-0.15882267
97	0xbe4fcc7c	-0.20292848
98	0xbddb2971	-0.10701264
99	0xbdfc612c	-0.123232216
100	0xbe207c4a	-0.15672413
101	0xbdcae230	-0.09906423
102	0xbc87f277	-0.016595108
103	0xbd089580	-0.0333457
104	0xbd5ebfc4	-0.0543821
105	0x3cd16de9	0.025565105
106	0x3d1d30f0	0.03837675
107	0x3bfb7c01	0.0076746945
108	0x3d35d401	0.044391636
109	0xbdd2fabb	-0.10301729
110	0x3d52ff0c	0.051512763
111	0x3d42e37e	0.047580235
112	0x3de1fc77	0.11034482
113	0x3d2f7e89	0.042845283
114	0x3e41e4c1	0.18934919
115	0x3dcb6a61	0.099323995
116	0x3df19967	0.11796837
117	0x3d818c4c	0.06325588
118	0x3e3fb6ce	0.18722078
119	0x3e4ed6a7	0.20199071
120	0x3d809b60	0.062796354
121	0xbd32f2f5	-0.043688733
122	0x3db983e2	0.09058358
123	0x3de27282	0.11056997
124	0x3dfa145a	0.12210913
125	0xbc918cda	-0.017767359
126	0x3df7b926	0.12095861
127	0x3e384e19	0.17998542
128	0xbb904059	-0.004402202
129	0x3d434c4e	0.04768019
130	0x3dc93213	0.09824004
131	0x3e1e6825	0.15469415
132	0xbcfd9844	-0.030956395
133	0x3bd87cff	0.0066066976
134	0xbb48d1e4	-0.0030642683
135	0x3d603a1a	0.05474291
136	0x3e0c6106	0.13708887
137	0x3e07dd90	0.13268113
138	0x3d68dabb	0.056849223
139	0x3e3dcf33	0.18536071
140	0x3d803e3b	0.062618695
141	0x3b6dbd51	0.0036276171
142	0x3d6322bf	0.05545306
143	0x3e121c54	0.14268619
144	0x3d2a5b60	0.04159105
145	0xbe101569	-0.14070667
146	0xbd5a346d	-0.053272653
147	0xbe13c03a	-0.14428797
148	0xbd1fed2d	-0.039044548
149	0xbd81c29a	-0.063359454
150	0xbe232fd3	-0.15936212
151	0xbcc9e6cc	-0.024646185
152	0xbdb2ebe0	-0.08736396
153	0x3d9ce6b5	0.076611914
154	0xbdbbc608	-0.09168631
155	0x3c06d415	0.008229275
156	0x3d3ae694	0.045630053
157	0x3d0f89cc	0.035043523
158	0x3d8443fc	0.064582795
159	0x3dda4e4b	0.106594644
160	0x3e3650de	0.17804286
161	0x3d806eef	0.06271159
162	0x3e0965b7	0.13417707
163	0x3d6d873d	0.0579903
164	0x3d4dd137	0.05024835
165	0x3d8b633a	0.06806035
166	0xbcd6b50c	-0.026209377
167	0x3e0eb9f9	0.1393813
168	0x3ddfb7bf	0.10923719
169	0x3db412cd	0.087926485
170	0x3ddf52bd	0.10904453
171	0x3cc01bb5	0.023450712
172	0x3e424df7	0.18975054
173	0x3e3f07aa	0.18655267
174	0x3d72902e	0.05921953
175	0x3df8219a	0.12115784
176	0x3e22d393	0.15901022
177	0x3de63026	0.11239652
178	0x3e0521f4	0.13001233
179	0x3da616c7	0.08109813
180	0x3d356615	0.044286806
181	0x3dbde9c0	0.092731
182	0x3d91172c	0.07084498
183	0x3dafde9f	0.085873835
184	0x3c158453	0.009125787
185	0x3d06e037	0.03292867
186	0x3c734a62	0.014849277
187	0xbc28383a	-0.010267312
188	0xbce371c3	-0.027764207
189	0x3cf24cd5	0.029577652
190	0xbcd1eb28	-0.025624827
191	0xbdbe37e5	-0.09288005
192	0xbe2760ec	-0.16345567
193	0xbe350c92	-0.17680576
194	0xbd218527	-0.039433625
195	0xbdc8d686	-0.09806542
196	0xbe378960	-0.17923498
197	0xbdf326fd	-0.11872671
198	0xbdbb2224	-0.09137371
199	0xbbe74718	-0.0070580356
200	0xbe00555a	-0.12532559
201	0xbe0eee83	-0.13958173
202	0x3d348f06	0.04408171
203	0xbd4a8e84	-0.04945232
204	0xbd9566a5	-0.072949685
205	0xbdc36354	-0.0954043
206	0x3c008105	0.007843261
207	0x3c06416c	0.008194309
208	0x3b22134a	0.0024730735
209	0x3e032925	0.12808664
210	0x3e0578e7	0.13034402
211	0x3e3bc8b9	0.18338288
212	0x3dec695c	0.11543533
213	0x3db0fa12	0.08641447
214	0x3e17f0f6	0.14838013
215	0x3dc1511c	0.094392985
216	0x3bb8edc1	0.005643577
217	0x3d9f8b90	0.07790291
218	0x3e0073f3	0.12544231
219	0x3da8b404	0.0823746
220	0x3d801f03	0.06255915
221	0x3d9a9f90	0.075499654
222	0x3e200570	0.15627074
223	0x3dc70c03	0.09719088
224	0x3dedcfc6	0.11611895
225	0x3dcd224d	0.10016308
226	0xbd0b8ae8	-0.03406802
227	0xbd05945d	-0.032612193
228	0x3dc1cdb5	0.09463064
229	0x3d19e73c	0.037574038
230	0xbc15d530	-0.009145066
231	0x3bac767e	0.005263149
232	0x3e2e8c3e	0.17045686
233	0x3e72f78b	0.23727243
234	0x3d63fe37	0.05566236
235	0x3cf1fd72	0.029539797
236	0x3e082f6e	0.13299343
237	0x3e461b7c	0.19346422
238	0xbde6c895	-0.11268727
239	0x3d8d0185	0.068850555
240	0xbdeef790	-0.116683125
241	0xbd4dcb24	-0.050242558
242	0xbdda8606	-0.10670094
243	0x3d8cfaee	0.068837985
244	0xbe4ec39f	-0.20191811
245	0xbe2d008e	-0.16894743
246	0xbe195447	-0.14973556
247	0xbdad8a0d	-0.08473597
248	0xbd088a89	-0.033335242
249	0xbe163ec6	-0.14672384
250	0xbb89c831	-0.004204773
251	0xbda62897	-0.08113211
252	0xbd371c4c	-0.04470472
253	0xbd409403	-0.047016155
254	0x3cb7f2b6	0.0224546
255	0xbc74e108	-0.01494623
